…
[OK]: prepare_mean_std found
[OK]: normalize_input found
[OK]: normalize_target found
[OK]: denormalize_output found
[OK]: forward found
[OK]: use inference, alternative method for inference
[OK]: loss is ignored, loss defined within model module
[OK]: other_setups is ignored, other setup functions before training
[OK]: flag_validation is ignored, flag to indicate train or validation set
[OK]: validation is ignored, deprecated. Please use model.flag_validation
[OK]: finish_up_inference is ignored, method to finish up work after inference
Model check done

Model infor:
Model(
  (m_base): Sequential(
    (0): Linear(in_features=769, out_features=512, bias=True)
    (1): Tanh()
    (2): Linear(in_features=512, out_features=512, bias=True)
    (3): Tanh()
    (4): LSTM(512, 128, batch_first=True, bidirectional=True)
  )
  (m_fdback): CombineFeedBack(
    (m_gate): GatedActWithNoise()
    (m_fb_trans): Sequential(
      (0): Linear(in_features=80, out_features=80, bias=True)
      (1): Linear(in_features=80, out_features=80, bias=True)
    )
  )
  (m_fb_proc): Sequential(
    (0): LSTMLayer(
      (m_lstm): LSTM(336, 512, batch_first=True)
    )
    (1): LSTMLayer(
      (m_lstm): LSTM(512, 512, batch_first=True)
    )
  )
  (m_fb_proc_out): Linear(in_features=512, out_features=80, bias=True)
  (m_post): PostNet(
    (m_post): Sequential(
      (0): PostNetCNNLayer(
        (m_cnn): Conv1d(80, 80, kernel_size=(5,), stride=(1,), padding=(4,))
      )
      (1): GatedActWithNoise()
      (2): PostNetCNNLayer(
        (m_cnn): Conv1d(80, 80, kernel_size=(5,), stride=(1,), padding=(4,))
      )
      (3): GatedActWithNoise()
      (4): PostNetCNNLayer(
        (m_cnn): Conv1d(80, 80, kernel_size=(5,), stride=(1,), padding=(4,))
      )
      (5): GatedActWithNoise()
      (6): PostNetCNNLayer(
        (m_cnn): Conv1d(80, 80, kernel_size=(5,), stride=(1,), padding=(4,))
      )
      (7): GatedActWithNoise()
      (8): PostNetCNNLayer(
        (m_cnn): Conv1d(80, 80, kernel_size=(5,), stride=(1,), padding=(4,))
      )
    )
  )
  (m_loss): MSELoss()
)
Parameter number: 5370752



Start inference (generation):
Generating 1, 106,2428-83699-0031,0,329,0, time cost: 0.063s
Generating 2, 52,1993-147149-0014,0,304,0, time cost: 0.063s
Generating 3, 236,6295-244435-0035,0,318,0, time cost: 0.063s
Generating 4, 266,6345-64257-0014,0,307,0, time cost: 0.063s
Generating 5, 159,3752-4943-0005,0,309,0, time cost: 0.063s
…
